textNN/model/Emotion_classification_1.pth (torch, 802759 bytes, 19 tensors)

embedding.weight f4 [1944, 50]
0	0xbf73f5a2	-0.9529668
1	0x3d512ddc	0.051069126
2	0x3e913795	0.28362718
3	0x3f3b82cd	0.7324646
4	0xbf96be36	-1.1776798
5	0x3f6541cc	0.89553523
6	0x3e053519	0.13008536
7	0x3fc6e5c3	1.5538868
8	0x3ff6df85	1.9286963
9	0xbcaddde6	-0.021223973
10	0x3bff2eda	0.0077875676
11	0xbf4e541f	-0.8059711
12	0x3eda64be	0.42654985
13	0xbf666fd7	-0.90014404
14	0x3f771d43	0.96529025
15	0xbf6e66a1	-0.9312535
16	0x3f9d1ec7	1.2275017
17	0x3e029734	0.12752992
18	0xbe498dfa	-0.19683066
19	0x404147aa	3.019999
20	0xbcf5e430	-0.030016035
21	0xbee089ef	-0.43855235
22	0x3fff45a5	1.9943129
23	0xbeecc514	-0.4624411
24	0xbfe7f24c	-1.8120818
25	0x3c8cc717	0.017184777
26	0x3f8fa69e	1.1222723
27	0x40109457	2.259054
28	0x3fb91a97	1.446124
29	0xc06a8981	-3.6646426
30	0xbea813a1	-0.32827476
31	0xbe941735	-0.28923956
32	0x3d1d0ea9	0.03834406
33	0x404e080f	3.2192419
34	0xc00a2e8a	-2.1590905
35	0x3e7b4fde	0.24542186
36	0xbf7821d9	-0.9692665
37	0x3c816027	0.01579292
38	0x3f10cd21	0.56563
39	0x3f843f3a	1.0331795
40	0xbf77120a	-0.965119
41	0xbfdd90db	-1.7309831
42	0xbf858f72	-1.0434401
43	0xbeb68cc8	-0.35654283
44	0x3e09585b	0.13412611
45	0x3efae876	0.4900548
46	0xbe38ab71	-0.1803415
47	0x3f9a2225	1.204167
48	0xbeb4712e	-0.352426
49	0xbf4c28ee	-0.79749954
50	0xbf097a72	-0.5370246
51	0xbfbf8ec3	-1.4965442
52	0x3f9dbb31	1.2322751
53	0x3e489298	0.19587171
54	0x3eb00191	0.34376195
55	0xbf19aaa0	-0.6002598
56	0xbf02963e	-0.510105
57	0xbfa8404d	-1.3144623
58	0xbfff41f5	-1.9942003
59	0x3f08fe89	0.5351339
60	0xbf9c5a0d	-1.2214981
61	0x3e6dc5ab	0.23219936
62	0xc009bd45	-2.152177
63	0x3eacfbda	0.33785897
64	0xbf44c9b3	-0.7687027
65	0x3f0fb1b6	0.5613054
66	0xbef5cffb	-0.4801024
67	0xbdaa32d0	-0.08310473
68	0xbec546e8	-0.3853066
69	0x3fb180de	1.3867452
70	0xbfacb972	-1.3494093
71	0x3fd0bec8	1.6308222
72	0xbfe5e9ce	-1.7961977
73	0x3f55235d	0.83257085
74	0x3f104b40	0.5636482
75	0x3ebd6077	0.3698766
76	0xbeaaaea3	-0.33336362
77	0xbe73d62f	-0.23812173
78	0xbf28adab	-0.65889996
79	0xbe9f364f	-0.31096122
80	0x3e334154	0.1750539
81	0xbe8fd65f	-0.2809324
82	0x3f11a2a4	0.56888795
83	0xbdfcf955	-0.12352244
84	0xbf59a4ce	-0.85017097
85	0xbfbbd04b	-1.4672941
86	0xbbe26a14	-0.006909618
87	0x3f074241	0.5283547
88	0x3f1ec438	0.62018156
89	0x3f93014a	1.1484768
90	0xbee6c1c7	-0.45069715
91	0x3fa7ce92	1.3109915
92	0x3f334b4f	0.70036787
93	0xbf61b86d	-0.88172036
94	0x3cd35e4b	0.025801798
95	0x3eb8aaf7	0.36067936
96	0x3eea9bfe	0.45822138
97	0x3f66dcb6	0.9018053
98	0x3edd3642	0.43205458
99	0xbf43a334	-0.76420903
100	0xbf447f2a	-0.76756537
101	0x400b5277	2.1769083
102	0xc01d304f	-2.4560735
103	0x3d65927d	0.056047905
104	0x3f6161cd	0.8803986
105	0xbf3dd0a4	-0.74146485
106	0x3f40eda2	0.753626
107	0x3fb3e12e	1.4053094
108	0xbdafc530	-0.085825324
109	0x4041f733	3.0307128
110	0xbf83c5ca	-1.0294735
111	0xbe993151	-0.29920438
112	0x3eb37ca3	0.35056028
113	0xbefdd99c	-0.49580085
114	0xbe45c454	-0.19313174
115	0xbc976638	-0.018481359
116	0xc013e066	-2.3105712
117	0x400525fd	2.0804436
118	0xbf057112	-0.52125657
119	0x3ee8b581	0.45450976
120	0xbe165907	-0.14682399
121	0x400af645	2.171281
122	0x3fb0aca6	1.3802688
123	0x3ec7803b	0.3896502
124	0xbf9929be	-1.1965864
125	0xbe04d6d3	-0.12972574
126	0xc016f305	-2.3585827
127	0x3e77012e	0.24121544
128	0xbe78e994	-0.24307853
129	0x3d92f459	0.07175512
130	0x3f235917	0.63807815
131	0x3da5610d	0.080751516
132	0x3f08bab0	0.5340986
133	0xbf969248	-1.1763391
134	0xbf476268	-0.7788453
135	0xc00e9019	-2.227545
136	0xbf280088	-0.6562581
137	0x3fb97bed	1.4490944
138	0xbfd6d4cc	-1.678369
139	0xbed34d23	-0.41269788
140	0xbf111b4d	-0.5668228
141	0x3f89e477	1.0772847
142	0xbe2849b6	-0.16434368
143	0x3f2a42cb	0.6650817
144	0x3f8b5706	1.0885932
145	0x3ff80f00	1.9379578
146	0xbf348506	-0.7051548
147	0x3f1f3df1	0.6220389
148	0x3f35e960	0.71059227
149	0xbdb7add7	-0.08968704
150	0x3f37510b	0.71608037
151	0xbf54857c	-0.8301618
152	0xbf92c2de	-1.1465719
153	0xbee98de4	-0.45616066
154	0x3f533570	0.82503414
155	0xbef0dbc2	-0.47042662
156	0x3eb4975a	0.35271722
157	0xbf50c7d5	-0.8155492
158	0x3fbcc253	1.4746803
159	0xc02dfd8c	-2.7186003
160	0x3fcb2a5c	1.5872302
161	0xbebd69ff	-0.3699493
162	0x3e0fc869	0.14041294
163	0x3f1d2a9b	0.61393136
164	0xbfa7f142	-1.3120501
165	0xc0650b9b	-3.5788333
166	0xbf490a88	-0.78531694
167	0xc07be860	-3.936058
168	0x3ff7a2e0	1.934658
169	0xbf0e1e81	-0.55515295
170	0xc00982dd	-2.1486123
171	0xbfbd744f	-1.480112
172	0x3ff622fd	1.9229428
173	0x3e2f61db	0.17127173
174	0xc07c0872	-3.9380155
175	0x3fbc7a87	1.4724892
176	0xbf8dc164	-1.1074643
177	0x3ec0f952	0.37690216
178	0xbf880d28	-1.0629015
179	0x401aee07	2.420778
180	0x40517fef	3.2734334
181	0xbf14ff6f	-0.5820226
182	0xbfaa83ed	-1.332151
183	0x4068ec41	3.6394198
184	0x3ea7defb	0.32787308
185	0x3eb2e244	0.34938252
186	0x3fd3586a	1.6511357
187	0x3f8be6fd	1.0929867
188	0xbcb4ba08	-0.022061363
189	0xbfb16e1b	-1.3861727
190	0x3f50f060	0.81616783
191	0xc05a9b74	-3.415738
192	0x3fbf2f79	1.4936363
193	0xbf22e568	-0.63631296
194	0x3ef3f5c9	0.47648457
195	0xc0146be1	-2.3190844
196	0xc00529d3	-2.0806777
197	0xbf0e2601	-0.5552674
198	0x3fc1ae4c	1.5131316
199	0x3efc66f4	0.49297297
200	0x3f676d5e	0.90401256
201	0xbe06294a	-0.13101688
202	0x40501540	3.251297
203	0x3f4cd070	0.8000555
204	0x3ea8fbcf	0.33004615
205	0x3fae678d	1.3625351
206	0xbf29f83e	-0.6639441
207	0xc049540d	-3.145755
208	0x3f8ecef8	1.1156912
209	0x3fb4ea9b	1.4134096
210	0xbf8b14f1	-1.0865766
211	0x3ef3f9ac	0.47651422
212	0xbfbeaa45	-1.4895712
213	0x3ff061f0	1.8779888
214	0xbf1eedb9	-0.62081486
215	0xbf207d02	-0.62690747
216	0x3fc83873	1.5642227
217	0x3fdfffc2	1.7499926
218	0xbfada21a	-1.3565094
219	0x3f2b54ee	0.6692647
220	0x3fab5502	1.3385317
221	0x3f4697f8	0.77575636
222	0xbf420fab	-0.7580516
223	0x3f8cd2b0	1.1001797
224	0x3e6bbd3e	0.23021409
225	0xc0115a76	-2.2711463
226	0xbed14124	-0.4087001
227	0x3f92b203	1.1460575
228	0xbecfc277	-0.40578052
229	0x3ef1b408	0.47207665
230	0x3fc01d4d	1.5008942
231	0x3eb366cd	0.35039368
232	0x3f3a7077	0.7282786
233	0x3d404f0a	0.046950378
234	0xbec205e4	-0.3789512
235	0x3edfd00a	0.4371341
236	0xbe791691	-0.24325015
237	0xbf688340	-0.9082527
238	0xbeb2f41a	-0.3495186
239	0xbe95b97d	-0.2924308
240	0xbe9ece88	-0.31016946
241	0x3d2c1840	0.042015314
242	0xbfef17fc	-1.8679194
243	0x3fea4d62	1.8304865
244	0xbd5093aa	-0.050922073
245	0xc00b383d	-2.1753075
246	0xbf48b31c	-0.783983
247	0xbf7da1dc	-0.990751
248	0xbe1999a9	-0.15000023
249	0x3f5594cb	0.83430165
250	0xbf66ed2d	-0.9020565
251	0xbfabf133	-1.3432983
252	0x3fca9c88	1.582902
253	0xbf3754b1	-0.71613604
254	0x3fdb9324	1.7154279
255	0xbeeb3f2c	-0.45946634

encoder.weight_ih_l0 f4 [200, 50]
0	0xbe04bb31	-0.12962033
1	0xbf8c76e4	-1.0973783
2	0xbf93f8bf	-1.1560286
3	0xbef69b9a	-0.4816559
4	0xbfae0562	-1.3595393
5	0xbe1ed2f1	-0.15510155
6	0x3f3dd15a	0.7414757
7	0x3f3dd39c	0.74151015
8	0x404bcbc7	3.1843126
9	0x3f6d3c80	0.9267044
10	0xbfc7418a	-1.5566876
11	0xbef968ae	-0.48712677
12	0x3f7143f1	0.94244295
13	0xbf899ee1	-1.0751611
14	0xbfede455	-1.8585306
15	0xbf2f530b	-0.6848609
16	0x3f05de07	0.5229191
17	0x3e895b36	0.268274
18	0x3ea895dc	0.32926834
19	0xbd82dc9e	-0.06389736
20	0xbf14c96b	-0.5811984
21	0x3e9ddcf8	0.30832648
22	0x3ffac49c	1.959125
23	0x3ebb0280	0.36525345
24	0xbfa0def7	-1.2568043
25	0x3efde70f	0.49590346
26	0x3eb4c743	0.35308275
27	0x3f382786	0.7193531
28	0xbecb23ed	-0.39675847
29	0xbef88b03	-0.48543558
30	0x3f84f2e6	1.0386627
31	0xbd9a4f67	-0.07534676
32	0x3f13513f	0.57545847
33	0x3f84c6f8	1.037322
34	0xbddf88d9	-0.109147735
35	0xbf4edf2d	-0.8080929
36	0x3f62624f	0.88431257
37	0x3f4a0346	0.78911245
38	0xbe2dc2ab	-0.16968791
39	0x3f9886f3	1.1916183
40	0x3f47debc	0.7807424
41	0xbf760ad5	-0.9611028
42	0xbf591ea0	-0.84812355
43	0xbda834ba	-0.08213182
44	0x3e82f657	0.25578567
45	0x3f83c133	1.0293335
46	0x3eb0c49d	0.34525004
47	0x3eaa82e8	0.33303
48	0xbeac26ac	-0.33623254
49	0x3e612714	0.21987563
50	0xc0049a80	-2.07193
51	0x3f0a2d07	0.53974956
52	0x3fa320ff	1.2744445
53	0xbf8ebe5d	-1.1151844
54	0xbee49383	-0.44643793
55	0x3f91230e	1.1338823
56	0xbe74d594	-0.23909599
57	0x3ef58845	0.47955528
58	0xbf50b08e	-0.815194
59	0xbf658cf7	-0.8966822
60	0x3ed68da8	0.4190495
61	0xbf65e7dc	-0.89806914
62	0xbf029292	-0.510049
63	0x3d1b747f	0.037952896
64	0x3f87159e	1.0553472
65	0xbfd11361	-1.6334039
66	0x3efc0685	0.49223724
67	0x3deec491	0.11658586
68	0x3e28d08a	0.16485801
69	0xbf16b733	-0.5887329
70	0x3efd7125	0.49500385
71	0xbe9f72ed	-0.3114237
72	0xbf89c8c7	-1.0764397
73	0xbf898f21	-1.0746804
74	0x3f07ff50	0.5312395
75	0xbe9a73a5	-0.30166355
76	0x3ee278b7	0.44232723
77	0xbd519033	-0.05116291
78	0xbf42b3e0	-0.7605572
79	0xbcd87e3a	-0.026427377
80	0x3f68831b	0.9082505
81	0x3ee2c88c	0.4429363
82	0xbec5a84e	-0.3860497
83	0xbfab77cd	-1.3395935
84	0xbe955aa1	-0.29170707
85	0x3f29de81	0.6635514
86	0xbeef58b1	-0.46747354
87	0x3f45abc7	0.77215236
88	0x3f7f3b14	0.9969952
89	0xbef52dd9	-0.4788654
90	0x3f834e25	1.0258223
91	0x3d9f7069	0.077851124
92	0x3f0c3740	0.54771805
93	0xbd11e134	-0.03561516
94	0x3f17b355	0.59258014
95	0xbfd6c7ad	-1.6779686
96	0xbf7c865f	-0.98642534
97	0x3f517384	0.8181689
98	0xbf0a8fd7	-0.5412573
99	0xbd55f586	-0.052236103
100	0x3f8c91e5	1.0982023
101	0xbe6a3d55	-0.22874959
102	0x3d8374b7	0.06418746
103	0x3dbcc06a	0.092163876
104	0x3db7850d	0.08960924
105	0x3df9c488	0.121956885
106	0x3fdc45c2	1.7208788
107	0xbe11d8e0	-0.14242887
108	0xbf54fd8f	-0.831994
109	0x3d883e61	0.06652523
110	0x3f162343	0.58647555
111	0xbf7fe8ef	-0.99964803
112	0xbd8c4e0c	-0.06850824
113	0x400a4188	2.1602497
114	0xbf988019	-1.1914092
115	0xbfd83c26	-1.6893356
116	0x3e8c0f8f	0.2735562
117	0x3e8e1f85	0.27758422
118	0x3fd01ff0	1.6259747
119	0x3f12fad2	0.5741397
120	0x3e6cc026	0.23120174
121	0xbf53b4f6	-0.82698
122	0xbf03f8aa	-0.51551306
123	0x3f0e8941	0.5567818
124	0x3e1492a2	0.14509061
125	0xbf08248c	-0.53180766
126	0xbf4954d7	-0.7864508
127	0xbec57da0	-0.38572407
128	0xbfb8d30d	-1.4439408
129	0x3d2fe36b	0.042941492
130	0xbfe56294	-1.7920709
131	0xbe94e293	-0.29079112
132	0x3e904400	0.2817688
133	0x3ee8151e	0.4532861
134	0x3f047b34	0.51750493
135	0xbf86ea70	-1.0540295
136	0xbf0b2f07	-0.54368633
137	0x3ea2e791	0.31817296
138	0x3f911620	1.1334877
139	0x3e7fd12f	0.24982141
140	0x3db65cd4	0.08904424
141	0xbf9e0b9c	-1.2347293
142	0xbf0df777	-0.55455726
143	0x3f880ecf	1.0629519
144	0xbf10289d	-0.5631197
145	0xbe4bef31	-0.19915463
146	0xbd81a854	-0.06330934
147	0x3e4c2ddc	0.19939369
148	0x3fd54867	1.666272
149	0x3f3c7c1b	0.7362687
150	0x3f2328bb	0.63734025
151	0x3e850ff1	0.25988725
152	0x3f3f541e	0.7473773
153	0xbe287eff	-0.16454695
154	0x3f402527	0.7505669
155	0xbe75a08c	-0.23987025
156	0xbfbdf8ed	-1.4841591
157	0x3c9231f4	0.017846085
158	0xbe90083d	-0.28131285
159	0xbee5b338	-0.44863296
160	0x3fa8ab45	1.3177267
161	0x400307da	2.0473542
162	0x3e567758	0.20943964
163	0xbf52c113	-0.8232586
164	0xbef4f57d	-0.47843543
165	0x3f908573	1.1290725
166	0xbfa7bf5b	-1.3105272
167	0x3e4fbc31	0.20286633
168	0x3f203824	0.62585664
169	0x3fa5a2f9	1.294036
170	0xc014b3ad	-2.3234665
171	0x3de54126	0.11194067
172	0x3fc4d0c7	1.5376214
173	0xbe51aa28	-0.20475066
174	0xbc180602	-0.009278776
175	0x3e5b4a7a	0.2141513
176	0xbeb08a44	-0.34480488
177	0x3ef0438a	0.46926528
178	0xbfd4a28e	-1.6612108
179	0xbb8bab64	-0.0042623747
180	0xbe550ee6	-0.20806465
181	0xbf0af1b0	-0.54275036
182	0xbe918070	-0.28418303
183	0xbf9a4c36	-1.2054508
184	0xbd0619dc	-0.032739505
185	0xbf918a2b	-1.137029
186	0x3f8da752	1.1066687
187	0xbe054778	-0.13015544
188	0x3f4045d6	0.7510656
189	0xbf923f99	-1.1425658
190	0xbfdeb208	-1.7398081
191	0xbf0a374b	-0.5399062
192	0x3dcc0bd0	0.099631906
193	0xbee972d7	-0.45595428
194	0xbe54885d	-0.20755143
195	0xbbee8db8	-0.007280078
196	0xbe437892	-0.19088963
197	0xbf9ecbb6	-1.2405918
198	0xbfd595e7	-1.6686372
199	0x3f9fc61a	1.2482331
200	0xbdc7b45b	-0.09751197
201	0x3f44a742	0.76817715
202	0x4003fb45	2.0622113
203	0x3eea8f2c	0.45812356
204	0xbf502d23	-0.81318873
205	0x3f5f6f12	0.87278855
206	0xbd9810e9	-0.074251
207	0xc00322a2	-2.0489888
208	0x3f064717	0.52452224
209	0xbf8c209a	-1.0947449
210	0x3fb73f36	1.4316165
211	0x3e8e8a3d	0.27839842
212	0xbe71b4ac	-0.23604077
213	0xbecba75d	-0.39776126
214	0xbf316d6f	-0.6930761
215	0xbf9cc7a3	-1.2248424
216	0x3f005305	0.5012668
217	0xbe08e1ad	-0.13367338
218	0xbd41aac7	-0.047282007
219	0xbf1ec68f	-0.62021726
220	0xbe67453a	-0.22585002
221	0xbf868df8	-1.0512075
222	0xbe0c1bbf	-0.1368246
223	0xc0696be4	-3.6472101
224	0xbf368ebb	-0.7131154
225	0x400f4992	2.2388654
226	0xbf17aaac	-0.592448
227	0x3edcd30c	0.43129766
228	0x3eeef4e0	0.466712
229	0x3f895e6e	1.0731943
230	0x3e736ab3	0.23771171
231	0xbefeeada	-0.49788553
232	0x3fa82cbd	1.3138653
233	0xbe88818d	-0.2666134
234	0xbd9ac424	-0.07556942
235	0xc009a001	-2.1503909
236	0x3eb0873a	0.3447817
237	0xbefb1507	-0.4903948
238	0x3f857d6d	1.0428902
239	0x3f3622b3	0.71146697
240	0xbf33b6f0	-0.70201015
241	0x3f373c39	0.7157627
242	0xbf440450	-0.7656908
243	0xbdc19d7d	-0.09453867
244	0xbf78f8c0	-0.9725456
245	0xbefc74e9	-0.49307945
246	0xbe82905c	-0.25500762
247	0x3ee5bad5	0.44869104
248	0x3ebfeb6d	0.37484303
249	0x3e668b70	0.22514129
250	0x3f9de72d	1.2336174
251	0x3ed86f80	0.42272568
252	0xbea17295	-0.31532732
253	0x3ec8193d	0.39081755
254	0x3ead9fb4	0.33910906
255	0x3ef6d63d	0.48210326

encoder.weight_hh_l0 f4 [200, 50]
0	0xbdeaecc2	-0.11470939
1	0xbf3359c7	-0.70058864
2	0x3e98660b	0.29765353
3	0xbdfd2d3c	-0.123621434
4	0xbf000408	-0.5000615
5	0x3e85ccf7	0.26132938
6	0xbea155b5	-0.31510702
7	0x3f41c15a	0.75685656
8	0x3b82ead6	0.00399528
9	0x3f64aaad	0.8932293
10	0x3c3daeba	0.011577303
11	0xbf42b2c5	-0.7605403
12	0x3f273c9c	0.6532686
13	0xbf8926e2	-1.0714991
14	0x3edda2e3	0.43288335
15	0xbec622e1	-0.38698485
16	0xbf04300a	-0.516358
17	0xbf5c2e9b	-0.86008614
18	0x3e4577b4	0.19283944
19	0xbf08f7c7	-0.5350308
20	0xbec7b97b	-0.39008698
21	0x3eceb4d0	0.40372324
22	0x3e0c9375	0.13728125
23	0xbe0e3e2a	-0.13890901
24	0x3faf701f	1.3706092
25	0xbf0489a0	-0.517725
26	0xbd5977f1	-0.0530929
27	0x3f6717fb	0.90270966
28	0xbefde960	-0.49592113
29	0x3efd0406	0.49417132
30	0xbf9600ef	-1.1719035
31	0xbd0d408e	-0.034485392
32	0x3f2ef96d	0.68349344
33	0x3f8c2086	1.0947425
34	0xbfd875d9	-1.6910964
35	0x3f85f994	1.046679
36	0x3f055d3d	0.52095395
37	0xbec18d65	-0.37803188
38	0xbfae03e5	-1.3594939
39	0xbe26cecf	-0.16289829
40	0xbf078bc4	-0.5294764
41	0xbf22b1bb	-0.63552445
42	0x3fb5cb78	1.4202719
43	0xbe89755a	-0.26847345
44	0x3e4f59b9	0.2024907
45	0xbf6c132d	-0.9221676
46	0xc01ad02d	-2.418956
47	0xbfc808b0	-1.5627651
48	0xbf1643ea	-0.5869738
49	0xbf41672f	-0.7554807
50	0xbf767be1	-0.96282774
51	0xbf4e4b22	-0.80583394
52	0xbf2b7c07	-0.66986126
53	0xbf8c9e28	-1.0985765
54	0xbe0477d8	-0.12936342
55	0xbf13d549	-0.5774732
56	0xbf4badbd	-0.7956198
57	0xbfd58976	-1.6682575
58	0x3f95f47e	1.1715238
59	0xbbdd71df	-0.0067579593
60	0xbfd824c5	-1.6886221
61	0xbf919574	-1.1373734
62	0xbfcd451c	-1.6036716
63	0xbf80fbcd	-1.0076844
64	0x3f66420e	0.8994454
65	0x3fe97e1f	1.8241614
66	0x3d4ccd33	0.05000038
67	0x3da6c0b9	0.08142228
68	0x3f6e9fe6	0.93212736
69	0x3f77c0cd	0.96778566
70	0xbf6742a5	-0.90336066
71	0xbf14947c	-0.5803907
72	0xbc232cd3	-0.009959417
73	0x3f09e859	0.5387016
74	0xbedb7d4c	-0.4286903
75	0x3f894f25	1.0727278
76	0xbf4c70d6	-0.79859674
77	0xbe86b018	-0.26306224
78	0x3feef10f	1.8667315
79	0x3f044b20	0.5167713
80	0xbf9389bf	-1.1526412
81	0x3fbc1f15	1.4696985
82	0xbdb22c6d	-0.0869988
83	0xbf89f349	-1.077737
84	0xbfa861f8	-1.3154898
85	0x3f85a0d0	1.0439701
86	0x3fa49af4	1.2859788
87	0x3f9dd384	1.2330174
88	0xbf9f194d	-1.2429596
89	0x3f6673c8	0.9002042
90	0x3fcd3e92	1.603472
91	0x40027d98	2.0389156
92	0xbf0068d2	-0.50159943
93	0xbeeb1930	-0.45917654
94	0xbd14c7f5	-0.036323506
95	0xbe806874	-0.2507969
96	0x3ece0730	0.4023986
97	0xbf218052	-0.63086426
98	0xbd47d73c	-0.048789248
99	0x3f1ebf4c	0.62010646
100	0x3f49ed6f	0.7887792
101	0xbfd3742c	-1.6519828
102	0xbff74809	-1.9318858
103	0xbe37cb6c	-0.17948693
104	0x3f9244c6	1.1427238
105	0xbebc49d6	-0.36775082
106	0xbfa9eb26	-1.3274887
107	0x3f05ed6e	0.52315414
108	0x3e361c5c	0.17784256
109	0x3f685626	0.9075645
110	0xbdb9e547	-0.09076934
111	0xbfaa32ed	-1.3296791
112	0xbfa4d828	-1.2878466
113	0xbf063c54	-0.52435803
114	0x3f46cfe2	0.77660954
115	0x3fc9fed9	1.5780898
116	0x3f6411ee	0.8908986
117	0x3f54c8ee	0.83119094
118	0x3facf7f3	1.3513168
119	0xbe6579d5	-0.22409756
120	0xb9dd5e24	-0.00042222545
121	0xbf75a128	-0.9594903
122	0xbf1ec245	-0.6201518
123	0xbf20c636	-0.62802446
124	0xbfbd973a	-1.4811776
125	0x3f4aa157	0.79152435
126	0xbea911c5	-0.3302137
127	0x3da8f3d9	0.08249635
128	0x3face235	1.3506533
129	0x3e6176e3	0.22018008
130	0xbfc96930	-1.5735226
131	0xbea3fd64	-0.3202926
132	0xbf15a8ef	-0.584609
133	0xbf120ffa	-0.5705563
134	0x3cc6be79	0.024260746
135	0x3f85208c	1.0400558
136	0x3f5fa4f9	0.87361103
137	0xbc5640e6	-0.013076996
138	0x3f39a92b	0.72523755
139	0x3f7b3e0e	0.9814156
140	0x402abe54	2.6678667
141	0x401eedf4	2.4832735
142	0x3e829298	0.25502467
143	0x3f85504b	1.0415128
144	0xbea4b5de	-0.32170004
145	0x3f606f7d	0.8767012
146	0xbf93ae22	-1.1537516
147	0x3e574d47	0.21025573
148	0x401832ba	2.378096
149	0xbf7b6ac8	-0.9820981
150	0xbf159550	-0.5843096
151	0x3efddd2b	0.495828
152	0xbf1a4ef3	-0.60276717
153	0xbfabe755	-1.3429972
154	0xbea9b0b6	-0.33142632
155	0xbf6cb4ac	-0.92463183
156	0x3d802a40	0.062580585
157	0xbff3b9ea	-1.9041111
158	0xc00a3eb5	-2.1600773
159	0x3fadeac7	1.3587273
160	0xbf9376b5	-1.1520602
161	0x3c9a2412	0.018816028
162	0x3e60f128	0.21966994
163	0xbffe523e	-1.9868848
164	0x3f0730a0	0.5280857
165	0x3d1958d1	0.037438218
166	0xbedeaf78	-0.43493247
167	0xbd0b627b	-0.034029465
168	0x3d6c098b	0.05762629
169	0x3f958b17	1.1683072
170	0xbe6af518	-0.22945058
171	0x3cc79898	0.024364755
172	0x3ec3b700	0.38225555
173	0x3f45f445	0.7732585
174	0xbfcea875	-1.6145159
175	0x3ed9697f	0.424633
176	0xbfa0cab3	-1.2561859
177	0x3d7e3b4c	0.06206827
178	0xbf0197a6	-0.5062202
179	0xbe2d242b	-0.16908328
180	0xbed3caf1	-0.4136577
181	0xbe98157a	-0.29703885
182	0xbf6c6dd4	-0.92355084
183	0xbfb19073	-1.3872207
184	0x3dd862c4	0.10565713
185	0x3fe9b86a	1.8259404
186	0xbf6a1f3d	-0.91453916
187	0xbe9f86d6	-0.3115756
188	0x3f835067	1.0258912
189	0x4008b37e	2.1359553
190	0xbcfd371b	-0.030910065
191	0x3e03f3da	0.1288599
192	0xbfbca18e	-1.4736803
193	0x3e949307	0.29018423
194	0x3fe905d8	1.8204908
195	0xbf163aa0	-0.58683205
196	0xbf402271	-0.75052553
197	0xbf316b39	-0.69304234
198	0x3f323ef5	0.69627315
199	0x400d9742	2.212357
200	0x3eba0f71	0.36339906
201	0x3fb1306e	1.3842905
202	0xbebbe230	-0.36696005
203	0xbfa6c897	-1.3029965
204	0x3eda23b4	0.42605364
205	0x3f217ee5	0.6308425
206	0xbf45a0aa	-0.7719828
207	0x3f8dc32a	1.1075184
208	0x3f333e5f	0.70017046
209	0xbefe1ea8	-0.49632764
210	0xbf224cba	-0.63398325
211	0xc0169c6b	-2.353297
212	0xbedc1c51	-0.42990354
213	0x3f89a80e	1.0754411
214	0x3f6d4b86	0.92693365
215	0x3e09d019	0.13458289
216	0x3f55aca4	0.83466554
217	0x40096c1f	2.1472242
218	0x3dc55118	0.09634608
219	0xbf1786e5	-0.5919021
220	0x3f1f670f	0.6226663
221	0xbeb726b2	-0.3577171
222	0x3f32cf04	0.6984713
223	0xbdce1fc2	-0.10064651
224	0xc0191733	-2.392041
225	0xc01f9f3f	-2.4940946
226	0x3d9f23a1	0.077704675
227	0x3e359287	0.17731677
228	0xbe020c94	-0.1270011
229	0x3f3fca0c	0.74917674
230	0xbed64d28	-0.4185574
231	0xbf2b4616	-0.6690382
232	0x3f3d3472	0.7390815
233	0xbf81b0f2	-1.0132124
234	0x3f9a91af	1.2075709
235	0x3f756954	0.9586384
236	0x400dcd33	2.2156494
237	0x3d4fc7cb	0.050727647
238	0xbfb29ccd	-1.3954102
239	0x3fbd32cd	1.4781128
240	0x3f0f36d6	0.5594305
241	0xbe84b409	-0.25918606
242	0x3e2ba626	0.167626
243	0xbe4efa72	-0.20212725
244	0xbf552d0c	-0.8327186
245	0xbe952c7e	-0.29135507
246	0x3f6a8924	0.9161551
247	0x3e0e7360	0.139112
248	0x4004a87b	2.0727832
249	0xbef74227	-0.48292658
250	0xbfdb1802	-1.7116702
251	0x3f18f1a1	0.59743696
252	0x3ec25e88	0.37962747
253	0xbf3f77f3	-0.74792403
254	0x3d803534	0.06260148
255	0xbf9b92f4	-1.2154222

encoder.bias_ih_l0 f4 [200]
0	0xbf9b88b1	-1.215109
1	0xc024af0f	-2.5731847
2	0xbfc237b5	-1.517325
3	0xbf004d93	-0.5011837
4	0xbf2edc86	-0.6830524
5	0xbf7b7b99	-0.9823547
6	0xbf5502a1	-0.83207136
7	0xbf6238ff	-0.8836822
8	0x3f3fde21	0.74948317
9	0xbfe3a6ee	-1.7785318
10	0xbf9b3e6c	-1.2128425
11	0xbe865eff	-0.2624435
12	0x3f8facc5	1.12246
13	0xbf189b5a	-0.5961205
14	0x3f39cc76	0.7257761
15	0xbf6c4615	-0.92294437
16	0xbfd92366	-1.6963928
17	0xbff435e9	-1.9078952
18	0xbea34071	-0.31885102
19	0x3f0a7516	0.5408491
20	0xbfa40b44	-1.2815938
21	0xbf0b00d2	-0.54298127
22	0x3f2ae5bc	0.66756797
23	0xbf95d08b	-1.1704267
24	0xbff169d0	-1.8860416
25	0x3cc61b34	0.024182893
26	0xbfe1dac1	-1.7644883
27	0x3fbb9355	1.4654337
28	0xbe9e2f7c	-0.30895603
29	0xbf88f98a	-1.0701153
30	0xbfb375ef	-1.4020365
31	0x3fce11d2	1.6099188
32	0xbf00f928	-0.5038018
33	0x3e7ade95	0.24498971
34	0x3e2f0d91	0.17095019
35	0xbed8738d	-0.42275658
36	0xbfdbb269	-1.7163821
37	0xbfb387a5	-1.402577
38	0xbec1e951	-0.3787332
39	0xbe5f7f40	-0.21825886
40	0xbf00177e	-0.50035846
41	0x3e796003	0.24353032
42	0xbf8b43f9	-1.0880119
43	0x3f5600a8	0.8359475
44	0xbf8b05e9	-1.0861179
45	0xbea557a8	-0.3229344
46	0x3f026736	0.5093874
47	0x3e2d6d51	0.16936232
48	0xbd842d1c	-0.064539164
49	0x3fcfa5ac	1.6222434
50	0xbfb2ea9a	-1.3977845
51	0xbebb4622	-0.36576945
52	0xbf631361	-0.88701445
53	0xbfaea6d7	-1.3644665
54	0x3eb27dcb	0.34861597
55	0xc01b2b1a	-2.4245057
56	0xbde11495	-0.10990254
57	0xbf106687	-0.56406444
58	0xbf99fbad	-1.202993
59	0xbea8d501	-0.3297501
60	0xbf8d1d37	-1.1024541
61	0xbf80e0a7	-1.0068558
62	0xbeca85a9	-0.395551
63	0x3f1d2f47	0.61400265
64	0x3efad461	0.48990157
65	0xbee906ee	-0.455131
66	0xbdf67d21	-0.12035585
67	0xbe7e1d60	-0.24815893
68	0x3ef71a44	0.48262227
69	0xbe23d35f	-0.159986
70	0xbff0e2d0	-1.8819218
71	0xbf927432	-1.144171
72	0x3ea8efa6	0.32995337
73	0xbe905911	-0.28192952
74	0xc0196125	-2.3965542
75	0x3dd6c515	0.10486809
76	0xbf9bb52d	-1.2164665
77	0xbef8819b	-0.4853638
78	0xbf8bc04a	-1.0918057
79	0xbd9ed15a	-0.077547744
80	0x3edd04c7	0.43167707
81	0x3e843081	0.25818256
82	0xbf8919c5	-1.0710989
83	0xbff66ccc	-1.9251952
84	0xbea1c2a5	-0.31593814
85	0xbf1161bf	-0.56789774
86	0xbfb3436f	-1.4004954
87	0x3f18b8d6	0.5965704
88	0xbf93b2ad	-1.1538903
89	0x3f542327	0.8286614
90	0xbe3beee7	-0.18352853
91	0xbf6fbaa2	-0.93644154
92	0x3f64b174	0.8933327
93	0xbfb628be	-1.4231184
94	0xbf53952e	-0.82649505
95	0xbf3bcc43	-0.73358554
96	0xbefb75ef	-0.49113414
97	0xbf24828f	-0.64261717
98	0x3d2bae30	0.041914165
99	0xbebaad7b	-0.3646048
100	0x3f599378	0.84990644
101	0x3f027437	0.5095858
102	0x3f3818a0	0.71912575
103	0xbdc07b1b	-0.093984805
104	0xbecf4f79	-0.4049032
105	0x3f0bbac8	0.5458188
106	0xbeb0bb19	-0.34517744
107	0x3c46fe4f	0.012145593
108	0xbf698b05	-0.9122775
109	0xbf65c42d	-0.89752465
110	0x3f269373	0.6506874
111	0x3fe8ed87	1.8197488
112	0x3f98355a	1.1891282
113	0x3fc11626	1.5084884
114	0xbf613716	-0.8797468
115	0x3ec73875	0.3891026
116	0x3e1055a7	0.14095174
117	0x3e5a4d67	0.21318589
118	0xbf95f5d5	-1.1715647
119	0x3d412ac6	0.047159933
120	0x3e946ddc	0.28990066
121	0x3e9fdc76	0.31222886
122	0xbf0fad9c	-0.5612428
123	0xbde59c9f	-0.11211514
124	0xbf876c58	-1.0579939
125	0xbf365932	-0.7122985
126	0x3e9e4fa9	0.3092015
127	0x3e677599	0.22603454
128	0xbe917ee4	-0.28417122
129	0xbf6c6153	-0.92336005
130	0x3ed1b5c2	0.40958983
131	0xbff60e07	-1.9223031
132	0xbf0fa655	-0.5611318
133	0x3db910c7	0.09036403
134	0x3fd141c7	1.6348199
135	0xbdb3048d	-0.08741102
136	0x3e4478da	0.19186726
137	0xbee6bfca	-0.45068198
138	0xbf10df24	-0.56590486
139	0xbf2aee51	-0.6676989
140	0xbb134dde	-0.0022476832
141	0x3eb7aea5	0.3587543
142	0x3f037b80	0.5136032
143	0xbf1d9e18	-0.61569357
144	0x3e2f99c2	0.17148498
145	0x3f2cd40f	0.67511076
146	0xbeeadea9	-0.45873
147	0x3f81c3f2	1.0137923
148	0xbfc0f27b	-1.5073999
149	0xbfbc3ab1	-1.4705411
150	0xbe533345	-0.20625027
151	0xbfbdd4c7	-1.483056
152	0xbf195b77	-0.5990519
153	0xbe8920f4	-0.26782954
154	0x3e2356dd	0.15951104
155	0xbf5ae448	-0.8550458
156	0x3fa36aab	1.2766927
157	0xbf6b957d	-0.92024976
158	0xbfefd1e8	-1.8735933
159	0xbffce043	-1.9755939
160	0x3f53a152	0.8266803
161	0xbefc3cbf	-0.49265096
162	0xbe92d035	-0.28674474
163	0xbd49fa87	-0.049311187
164	0xbfa2f1f5	-1.273009
165	0xbf2134ec	-0.6297138
166	0xbf8e9590	-1.1139393
167	0xbf8f44c2	-1.1192858
168	0x3ee5b615	0.4486548
169	0x3ef1ecc0	0.47250938
170	0xbfc36325	-1.5264632
171	0xbf87f51c	-1.0621676
172	0xbf8a1a21	-1.0789224
173	0xbe29039d	-0.16505285
174	0x3e3818fa	0.17978278
175	0x3f40fae1	0.7538281
176	0xbfdf824c	-1.7461638
177	0xbeee28a6	-0.46515387
178	0xbd17e723	-0.037085664
179	0xbecb2218	-0.3967445
180	0xbfcbb82e	-1.5915582
181	0xbe3f6b36	-0.18693241
182	0xbefb0e81	-0.49034503
183	0xbf471143	-0.77760714
184	0x3ee1ef31	0.441278
185	0xbe3660ca	-0.1781036
186	0xbfd578ec	-1.6677527
187	0xbe50cea1	-0.20391323
188	0x3f7941af	0.9736585
189	0xbe8d78ad	-0.2763113
190	0x3f7640ea	0.961928
191	0xbf7cd1a3	-0.9875738
192	0x3f064ab9	0.5245777
193	0x3ee6efa3	0.45104703
194	0xbf52504e	-0.82153785
195	0xbf8169ad	-1.0110375
196	0xbfc4b296	-1.5367
197	0xbf746c32	-0.9547759
198	0x3f616f0e	0.8806008
199	0xbf835ec9	-1.0263301

encoder.bias_hh_l0 f4 [200]
0	0xbf96ee81	-1.1791536
1	0xc022170d	-2.532657
2	0xbfb6bfbd	-1.4277264
3	0xbedd77b9	-0.43255404
4	0xbf33ed66	-0.70284116
5	0xbf83018e	-1.023485
6	0xbf5a04b1	-0.8516341
7	0xbf51bed7	-0.81931823
8	0x3f40f471	0.7537299
9	0xbfe1d88b	-1.7644209
10	0xbf7f405c	-0.9970758
11	0xbea1c447	-0.3159506
12	0x3f8dbcac	1.1073203
13	0xbec9dae2	-0.39424807
14	0x3f1a2c62	0.6022397
15	0xbf83f6f3	-1.0309738
16	0xbfd8e4b0	-1.694479
17	0xc0018dcb	-2.0242794
18	0xbebea8d0	-0.3723817
19	0x3f1dfc6b	0.61713284
20	0xbf92c428	-1.1466112
21	0xbf260de2	-0.64864933
22	0x3ee33c6d	0.4438204
23	0xbf926275	-1.1436297
24	0xbff8ebcf	-1.9446963
25	0xbdca8e96	-0.09890477
26	0xbffc4dda	-1.9711258
27	0x3fc255e8	1.5182467
28	0xbea57c3f	-0.32321355
29	0xbf99f1d9	-1.2026931
30	0xbfa8bf18	-1.3183317
31	0x3fc18ff0	1.5122051
32	0xbef4cb72	-0.47811466
33	0x3e839e29	0.25706604
34	0x3e8b542a	0.2721265
35	0xbf063635	-0.52426463
36	0xbfddb43e	-1.732063
37	0xbfb18947	-1.3870019
38	0xbe9208f2	-0.2852245
39	0xbdfe23a3	-0.12409141
40	0xbe7e2dc2	-0.24822143
41	0x3e3375e0	0.17525434
42	0xbf947e54	-1.1601052
43	0x3f6e0e95	0.92991
44	0xbf936f68	-1.1518373
45	0xbea63cbd	-0.32468215
46	0x3f0507aa	0.5196482
47	0x3d6e8dc8	0.058240682
48	0x3d4cedeb	0.050031584
49	0x3fb1ef43	1.3901142
50	0xbf9b0998	-1.2112303
51	0xbec45b07	-0.38350698
52	0xbf764a16	-0.96206796
53	0xbfa290e2	-1.2700465
54	0x3e87ef67	0.26549837
55	0xc013ec66	-2.3113036
56	0xbe259b90	-0.16172624
57	0xbf15268c	-0.5826194
58	0xbf8ffd94	-1.1249261
59	0xbe90f696	-0.2831313
60	0xbf8eb64d	-1.1149384
61	0xbf81aa84	-1.0130162
62	0xbea77b87	-0.3271143
63	0x3f3b575f	0.7318019
64	0x3ea31c50	0.31857538
65	0xbef10b2b	-0.47078833
66	0xbe0df8ad	-0.13864394
67	0xbe4dccff	-0.20097731
68	0x3eee71d7	0.46571228
69	0xbe3f90fa	-0.18707648
70	0xbfddbdab	-1.7323507
71	0xbf9fb099	-1.2475768
72	0x3f025017	0.5090346
73	0xbe941876	-0.28924912
74	0xc0166afc	-2.3502798
75	0x3d9d4b1b	0.07680341
76	0xbf8aa90f	-1.0832843
77	0xbe899818	-0.2687385
78	0xbf75bdd7	-0.959928
79	0xbde7564d	-0.112957574
80	0x3ec71f8c	0.38891256
81	0x3d31f6e0	0.04344833
82	0xbfa39560	-1.2779961
83	0xbff8d72e	-1.9440668
84	0xbefeef5c	-0.49791992
85	0xbf39fd22	-0.72651875
86	0xbfa67212	-1.3003561
87	0x3f371946	0.7152294
88	0xbf84876a	-1.0353825
89	0x3f398c72	0.7247993
90	0xbe162347	-0.14661895
91	0xbf88b582	-1.0680392
92	0x3f7e5a62	0.99356663
93	0xbfad1ddc	-1.3524737
94	0xbf30d861	-0.6908017
95	0xbf5cc08d	-0.8623131
96	0xbf1a4aea	-0.6027056
97	0xbf407727	-0.7518181
98	0x3e50faf6	0.20408234
99	0xbeeef219	-0.4666908
100	0x3f4a87b0	0.7911329
101	0x3f130f3b	0.57445115
102	0x3f595466	0.84894407
103	0xbe08c292	-0.13355473
104	0xbee6b15d	-0.45057192
105	0x3f0bc009	0.545899
106	0xbeb8a541	-0.3606358
107	0x3d5aff9c	0.053466424
108	0xbf5cc664	-0.8624022
109	0xbf6af3ef	-0.91778463
110	0x3f0030fc	0.50074744
111	0x3ff6d3ad	1.9283348
112	0x3f9c0a3a	1.2190621
113	0x3fcef091	1.6167165
114	0xbf84dc3a	-1.0379708
115	0x3eff2432	0.49832302
116	0x3db1483f	0.08656358
117	0x3d9264ba	0.07148118
118	0xbf89c608	-1.0763559
119	0xbb2411bc	-0.0025034985
120	0x3d5a28d3	0.05326159
121	0x3ea381b9	0.31934908
122	0xbee70c30	-0.45126486
123	0xbdc650b5	-0.096833624
124	0xbf7b9ad4	-0.98283124
125	0xbf255f94	-0.64598966
126	0x3e2eef23	0.17083411
127	0x3dcfba0f	0.1014291
128	0xbe173f5b	-0.14770262
129	0xbf780cda	-0.9689461
130	0x3ef63fe3	0.48095617
131	0xbfdd7a27	-1.7302903
132	0xbf204606	-0.6260685
133	0xbe0f9acb	-0.14023893
134	0x3fc04267	1.5020264
135	0x3e12fb06	0.1435357
136	0x3ea09197	0.31361076
137	0xbea065b9	-0.31327608
138	0xbf0454d8	-0.5169196
139	0xbf536cc3	-0.8258783
140	0xbc8f2eb2	-0.01747832
141	0x3e9ee258	0.31032062
142	0x3f007854	0.50183606
143	0xbf2e1f95	-0.6801694
144	0x3e2ab3ce	0.16670153
145	0x3f0e24f5	0.5552514
146	0xbed4f4d4	-0.4159304
147	0x3f655f21	0.8959828
148	0xbfb8f24b	-1.4448942
149	0xbfbf395d	-1.4939381
150	0xbe4f828d	-0.20264645
151	0xbfb36ca2	-1.4017527
152	0xbf0fddb6	-0.5619768
153	0xbddc378d	-0.10752783
154	0x3e42796d	0.18991633
155	0xbf38fa09	-0.72256523
156	0x3f8c5494	1.0963311
157	0xbf879fc2	-1.0595629
158	0xbffd21ec	-1.9775977
159	0xc000c735	-2.0121586
160	0x3f848dc1	1.035576
161	0xbefb97ff	-0.491394
162	0xbed2c1cd	-0.41163483
163	0x39eed770	0.0004555541
164	0xbf954461	-1.1661493
165	0xbf3ec323	-0.74516505
166	0xbf827704	-1.0192571
167	0xbf8b2ad9	-1.0872451
168	0x3ed7acc5	0.42124
169	0x3ed85145	0.42249504
170	0xbfb5db51	-1.4207555
171	0xbf950612	-1.1642478
172	0xbf8e918a	-1.1138165
173	0xbe89b66e	-0.26896995
174	0x3e1d325f	0.15351246
175	0x3f4bbcf3	0.7958519
176	0xbfd2878e	-1.6447618
177	0xbf03159a	-0.51204836
178	0xbd0827b2	-0.03324098
179	0xbebc19e5	-0.36738506
180	0xbfc8b581	-1.5680391
181	0xbeab7489	-0.33487347
182	0xbf16a0a1	-0.5883885
183	0xbf35ab36	-0.7096437
184	0x3ef0186b	0.4689363
185	0xbd0c4e25	-0.034254212
186	0xbfea7d9a	-1.831958
187	0xbe7963ac	-0.24354428
188	0x3f56b891	0.83875376
189	0xbe16e3c1	-0.14735319
190	0x3f510b76	0.81658113
191	0xbf72d18c	-0.94850993
192	0x3eceabb2	0.40365368
193	0x3ec755e0	0.38932705
194	0xbf5672d5	-0.8376897
195	0xbf6c116d	-0.9221409
196	0xbfdc702e	-1.7221735
197	0xbf64364d	-0.89145356
198	0x3f3bb0c7	0.73316616
199	0xbf9878af	-1.191183

encoder.weight_ih_l0_reverse f4 [200, 50]
0	0x3fe90d2b	1.8207144
1	0xbeef39a2	-0.46723658
2	0x3fddb58d	1.732103
3	0x3e85b0dd	0.26111498
4	0x3e79002f	0.24316476
5	0xbf13891a	-0.57631075
6	0x3f302119	0.68800503
7	0x3edb380a	0.42816192
8	0xbd179a62	-0.037012465
9	0x3dd842a9	0.105595894
10	0x3eab2b0a	0.33431274
11	0xbe72ecf5	-0.23723204
12	0xbf08ae94	-0.53391385
13	0x3f84d271	1.0376722
14	0x3ecfea1b	0.40608296
15	0xbf4831e3	-0.7820112
16	0x3f959f12	1.168917
17	0xbe487ef0	-0.19579673
18	0x3f0f085c	0.5587213
19	0x3e23f951	0.16013075
20	0x3f71e2ef	0.944869
21	0xbfb4403b	-1.4082102
22	0xbd8ae054	-0.067810684
23	0xbe67d1d0	-0.22638631
24	0x3e3ab184	0.1823178
25	0x3e8c8c24	0.2745067
26	0xbf84a146	-1.0361717
27	0xbfa5f633	-1.2965759
28	0xbecdd174	-0.40198863
29	0x3feefa03	1.8670048
30	0xbd846c12	-0.06465925
31	0x3f6d52e9	0.92704636
32	0xbedaba35	-0.4272019
33	0xbf707add	-0.93937474
34	0xbfa5e25a	-1.2959702
35	0xbed096e4	-0.4074012
36	0x3e98d3d1	0.29849103
37	0xbfa2d891	-1.2722341
38	0x3f8bbb73	1.091658
39	0xbe92c74c	-0.28667676
40	0x3ec9b971	0.39399293
41	0x3dfc879a	0.123305514
42	0xbf8c0150	-1.09379
43	0x3e9d9990	0.3078122
44	0x3e473d1f	0.1945691
45	0xbf31a161	-0.6938687
46	0x3e85dddf	0.26145837
47	0xbfa53e5c	-1.2909656
48	0x3fb0cea0	1.3813057
49	0xbd70a364	-0.05874957
50	0xbcb0ab4e	-0.02156606
51	0xbfedae43	-1.8568805
52	0x3f226424	0.6343405
53	0xbf4bc0a9	-0.7959085
54	0x3f853bf7	1.0408925
55	0x3fd92956	1.696574
56	0xbf3b1c9c	-0.7309053
57	0x3f7ded85	0.9919055
58	0xbfd03c61	-1.6268426
59	0x3d9b50c4	0.07583764
60	0x3fa453d0	1.2838078
61	0xbf89da6c	-1.0769782
62	0x3fb433f9	1.4078361
63	0xbf61e6fd	-0.88243085
64	0x3f0dd845	0.55408126
65	0x3d87ff7c	0.06640527
66	0xbea0f19e	-0.3143434
67	0x3e2c473a	0.16824046
68	0xbea42473	-0.3205906
69	0x3e4cc63d	0.19997497
70	0x3efa25c3	0.48856935
71	0xbf315a1d	-0.69278127
72	0xbebc3f53	-0.36767063
73	0x3facdb01	1.3504335
74	0xbd115263	-0.03547896
75	0xbf12841c	-0.5723283
76	0x3f5f5961	0.87245756
77	0x3fd3e143	1.655312
78	0x3e623592	0.22090748
79	0xbf35b3c4	-0.70977426
80	0xbf905a82	-1.1277621
81	0xbef781e3	-0.48341283
82	0x3ee4190d	0.44550362
83	0x3e3cfff6	0.18457016
84	0x3f36fc9e	0.71479213
85	0xbf2eb43a	-0.68243754
86	0xbf8c3ba9	-1.0955707
87	0xc01cda14	-2.4508104
88	0x3f104038	0.5634799
89	0x3e3f90cf	0.18707584
90	0x3e0c73ce	0.13716051
91	0x3f07f5ed	0.5310963
92	0xbf7d0ff9	-0.988525
93	0xbed645b2	-0.41850048
94	0x3f19552c	0.59895587
95	0xbc9ae2da	-0.018907
96	0x3f9039c2	1.1267626
97	0x3dfef319	0.12448711
98	0x3efb88a4	0.49127686
99	0xbfb0c7dc	-1.3810992
100	0x39051328	0.00012691005
101	0x3ddc127d	0.10745714
102	0x3fc37428	1.5269823
103	0xbf1c03f9	-0.6094356
104	0x3e08e0b5	0.13366969
105	0xbeb2d5ae	-0.3492865
106	0xbe7a4086	-0.24438676
107	0xbfa82ac5	-1.3138052
108	0xbbd466a5	-0.0064819627
109	0xc013a482	-2.3069158
110	0xbed13c79	-0.4086645
111	0xbf99b2f1	-1.2007734
112	0xbf404c28	-0.75116205
113	0x3feedd67	1.8661317
114	0xbf63ff35	-0.8906129
115	0x3e48d359	0.19611873
116	0xbe036227	-0.12830411
117	0x3fb9eab4	1.4524751
118	0xbf82d919	-1.0222503
119	0x3f43f222	0.7654134
120	0x3fcdf440	1.6090164
121	0x3e7dbb9f	0.24778603
122	0xbdf89d4c	-0.12139377
123	0xbf9c8b20	-1.2229958
124	0x3f59c239	0.85061985
125	0x3f0118b8	0.5042834
126	0x3eb90915	0.36139742
127	0x3dcc7c01	0.09984589
128	0xbc4a1174	-0.012333263
129	0xbf222392	-0.63335526
130	0xbd822d3b	-0.06356283
131	0x3dae8fa3	0.0852349
132	0xbeb972bf	-0.36220357
133	0xbe438db8	-0.1909703
134	0xbe8c8efa	-0.27452832
135	0x3f0d6956	0.55238855
136	0xbf472aff	-0.7779998
137	0xbeeb8a6f	-0.46004054
138	0x3f5d2059	0.86377484
139	0x3ea30c40	0.31845284
140	0xbf2779ed	-0.6542042
141	0xbbbfcfec	-0.0058536436
142	0x3f3aac95	0.7291959
143	0xbe34a2bf	-0.17640208
144	0xbd9dd934	-0.07707444
145	0x3f1cab35	0.6119874
146	0x3f81fdfe	1.0155637
147	0x3f6aae12	0.9167186
148	0x3f2d5edb	0.6772286
149	0x3f2454d6	0.6419195
150	0x3f2525d3	0.6451084
151	0x3e92fff3	0.287109
152	0x3f8de5d8	1.1085768
153	0x3e632e8b	0.22185723
154	0xbc2c632c	-0.010521691
155	0xbf1d23ff	-0.6138305
156	0xbec2dd8f	-0.3805966
157	0x3e3e5a7c	0.18589205
158	0x3f4fe5dc	0.8121011
159	0xbfcf58ee	-1.6199014
160	0x3f31e4c4	0.69489694
161	0xbef8e026	-0.48608512
162	0x3f0537e2	0.52038395
163	0x3fb68baf	1.4261378
164	0xbdb9c09b	-0.0906994
165	0x3dfbfa9f	0.123036616
166	0x3f84e12c	1.0381217
167	0x3f2237b5	0.6336625
168	0x3f12f1ac	0.5740001
169	0xbf4c11fb	-0.79714936
170	0xbf2e093a	-0.6798283
171	0xbf32b7b4	-0.6981156
172	0xbf62024c	-0.88284755
173	0xbf6ae7a7	-0.91759723
174	0xbfadf14c	-1.3589263
175	0xbf15eddc	-0.5856607
176	0x3ed17314	0.4090811
177	0xbc960106	-0.018311035
178	0xbeaf8401	-0.34280398
179	0xbf5db637	-0.8660616
180	0x3e2ce04f	0.16882442
181	0x3e0ff6ae	0.14058945
182	0xbf3f724d	-0.74783784
183	0x3f684760	0.9073391
184	0x3f178247	0.5918316
185	0x3f40cf1d	0.7531603
186	0x3f7d2c3f	0.9889564
187	0x3fe6e146	1.8037498
188	0xbeaef8df	-0.3417425
189	0xbe0d9539	-0.13826455
190	0x3ffebcda	1.9901383
191	0x3e39db08	0.1814996
192	0x3dafdd32	0.085871115
193	0x3f2900e4	0.66016984
194	0xbfbc63c7	-1.471795
195	0x3f703a71	0.93839175
196	0xbeebdbc0	-0.46066093
197	0xbeb71b22	-0.35762888
198	0xbee4d2b3	-0.44692
199	0xbfd680c6	-1.6758049
200	0x3f4a2815	0.7896741
201	0xbdfa6911	-0.12227071
202	0x3e0ebaa8	0.13938391
203	0x3ec4d5d1	0.3844438
204	0x3d892518	0.06696528
205	0x3e47740c	0.19477862
206	0xbf965903	-1.1745914
207	0x3e86936e	0.26284355
208	0x3f44f957	0.7694296
209	0xbff1c066	-1.888684
210	0xbf62f718	-0.88658285
211	0x3e52d70d	0.20589848
212	0x3ede4d26	0.43418235
213	0xbfb58fcf	-1.4184512
214	0x3f48d683	0.7845232
215	0xbec83b83	-0.39107904
216	0xbf5993b0	-0.8499098
217	0xbf8583ab	-1.0430807
218	0x3edd259d	0.4319276
219	0xbf8cace3	-1.0990261
220	0xbd5e2e7d	-0.054243553
221	0xbf50a96f	-0.81508535
222	0xbd84c123	-0.064821504
223	0x3c9f9270	0.019479007
224	0xbf514d62	-0.817587
225	0x3f760261	0.9609738
226	0x3f82882a	1.0197804
227	0x3e5de49d	0.2166924
228	0xbf0e0ee4	-0.5549147
229	0x3fa13367	1.2593812
230	0xbe20dc81	-0.15709116
231	0x3fea448a	1.8302166
232	0xbe8da893	-0.27667674
233	0x3bf0f592	0.007353493
234	0x3f1b3957	0.6063437
235	0xbe80046e	-0.2500338
236	0x3ce02810	0.027362853
237	0xbf00badd	-0.5028513
238	0x3fa33ec6	1.2753532
239	0xbf8e6197	-1.1123532
240	0x3d2851b7	0.041093554
241	0x3eff6807	0.49884054
242	0x3fd86b61	1.690777
243	0xbebb8094	-0.36621535
244	0xc01e77a6	-2.4760528
245	0x3e0e5f2a	0.1390349
246	0x3f288d1c	0.65840316
247	0xbf07d43c	-0.5305822
248	0x3fa28de2	1.2699549
249	0xbf0d5ca1	-0.55219465
250	0xbd68c1f1	-0.056825582
251	0xbe42b7df	-0.19015454
252	0x3fbb3c2f	1.4627742
253	0x3f29da1e	0.66348445
254	0x3e304695	0.17214425
255	0x3f6ba154	0.9204304

encoder.weight_hh_l0_reverse f4 [200, 50]
0	0xbf014fa4	-0.50512147
1	0x3e4732ae	0.19452927
2	0x3f7adc16	0.97992074
3	0xbfac2ca5	-1.3451124
4	0xbfc6a766	-1.5519836
5	0xbee1301c	-0.43982017
6	0x3e925666	0.28581542
7	0xbd1f7a1f	-0.038934823
8	0xbeadc724	-0.33940995
9	0x3fbc5d5e	1.4715993
10	0xbf1a10d4	-0.6018193
11	0xbf1b2e12	-0.6061717
12	0xbfd647af	-1.6740626
13	0xbf93112d	-1.1489617
14	0xbee57e00	-0.44822693
15	0x3f2b5ad6	0.6693548
16	0xbec43214	-0.38319457
17	0xbf6f8a11	-0.9357005
18	0x3f8871f3	1.0659775
19	0xbfb4407c	-1.4082179
20	0xbff739c2	-1.9314501
21	0xbf877a58	-1.0584211
22	0xbfef45a0	-1.8693123
23	0x3f98fa17	1.1951321
24	0xc02b0782	-2.6723332
25	0xbd8217e1	-0.06352211
26	0x3f11e089	0.5698324
27	0x40065f6c	2.099574
28	0xbe91de34	-0.2848984
29	0x3ec39454	0.38199103
30	0x3f9fa79d	1.2473027
31	0x3ec448dd	0.3833684
32	0xbf6b63bb	-0.9194905
33	0xc00f2508	-2.2366352
34	0xbd89025f	-0.066899054
35	0x3f3574d8	0.70881414
36	0x3f2f1dca	0.6840483
37	0x3f5f64dd	0.8726328
38	0xbf90fb7d	-1.1326748
39	0xbfa00ba9	-1.2503558
40	0xbf11c603	-0.56942767
41	0x3f63aaad	0.88932306
42	0xbf286fd4	-0.65795636
43	0x3bd04f14	0.006357083
44	0xbfa4a4ce	-1.2862794
45	0xbe2a7cf3	-0.16649227
46	0xbf30fa42	-0.69131863
47	0x3fa4fefa	1.2890313
48	0xbf402a1b	-0.7506425
49	0x3f4fa841	0.8111611
50	0xbe776110	-0.2415812
51	0xbf24413a	-0.6416203
52	0xbe189b5c	-0.14903015
53	0xbfdda119	-1.7314788
54	0x3f91d532	1.1393187
55	0x3dd8002b	0.10546907
56	0x3eacdcd0	0.33762217
57	0x3caba210	0.0209513
58	0xbf21f38e	-0.6326226
59	0x3f9a9bdb	1.2078813
60	0x3f6a5aa2	0.91544545
61	0xbfa1f54c	-1.2652984
62	0xbd569ff6	-0.052398644
63	0x40004bd2	2.0046277
64	0x3f77f56c	0.9685886
65	0xbea5dabb	-0.3239344
66	0xbf38e681	-0.7222672
67	0x3d26ec16	0.040752493
68	0xbf4a8342	-0.79106534
69	0xbef86e33	-0.48521575
70	0xbfb97462	-1.4488642
71	0x3fce2b24	1.6106915
72	0xbed85072	-0.42248875
73	0xbf2837c9	-0.6571012
74	0xbf06b7d3	-0.52624243
75	0xbee5d753	-0.44890842
76	0x3ec6c42f	0.3882155
77	0xbf747fd5	-0.95507556
78	0xbe5200b8	-0.20508087
79	0xbfc07858	-1.5036726
80	0x3da788ed	0.081804134
81	0x3f453866	0.7703918
82	0xbe756f05	-0.23968132
83	0x3f2dbfac	0.67870593
84	0xbe9dc718	-0.3081596
85	0x3e77cf44	0.2420016
86	0xbecafd47	-0.3964636
87	0xbf945a89	-1.1590129
88	0xbfb98296	-1.4492977
89	0xbe417d50	-0.18895459
90	0xbe0c21e7	-0.13684808
91	0xbe14a939	-0.14517678
92	0xbf2adb55	-0.66740924
93	0x3ebe1f4f	0.37133262
94	0xbe87d6bf	-0.26531026
95	0xbfc39b48	-1.5281763
96	0x3f26bfc2	0.6513635
97	0x3f1d4f2b	0.61448926
98	0x3cd34d8d	0.025793815
99	0x3e7e34b3	0.2482479
100	0x3e7a5f93	0.24450521
101	0x3e0edfdb	0.13952582
102	0xbf874e2f	-1.0570735
103	0xbfaddc9b	-1.3582948
104	0xbde8bbba	-0.11363931
105	0x3f16e9eb	0.5895068
106	0xbf71c2f2	-0.9443809
107	0x3e96fdd7	0.2949054
108	0xbffa8ddb	-1.9574541
109	0x3ec38a5b	0.38191494
110	0x3e1633dc	0.1466822
111	0x3d19ebe7	0.03757849
112	0xc016235b	-2.345908
113	0xbc71b810	-0.014753357
114	0x3e829c3b	0.2550982
115	0x3f6006a6	0.87510145
116	0xbee4f6eb	-0.44719633
117	0xbf4f3287	-0.80936474
118	0x3fe1416a	1.7598088
119	0x3eb5e3de	0.3552541
120	0x3e329ab9	0.17441835
121	0x3e3728c3	0.17886643
122	0xbe1c72ae	-0.15278122
123	0x3f93e94e	1.1555574
124	0xbebe2da7	-0.37144205
125	0x3f65d003	0.89770526
126	0x3e98ad06	0.29819506
127	0x3fdf9786	1.7468116
128	0xbf4d4a77	-0.8019175
129	0x3e8548b9	0.26032045
130	0x3f94ea0e	1.1633928
131	0x3f3a24b5	0.7271226
132	0x3f046f8c	0.5173271
133	0xbfce7695	-1.6129938
134	0xbf4b7dc1	-0.7948876
135	0x3fd2eb05	1.6477972
136	0xbe58a097	-0.2115501
137	0xbed762db	-0.42067608
138	0x3ebec88d	0.37262383
139	0x3fac1cf3	1.3446335
140	0x3f0fe15d	0.5620325
141	0xbf48ac63	-0.7838804
142	0xbd2a64bb	-0.04159997
143	0x3f8c4fa4	1.0961804
144	0x3f0f983b	0.5609166
145	0x3ead0434	0.3379227
146	0xbffb7c5d	-1.9647328
147	0x3faffe06	1.3749397
148	0x3fc4c42b	1.5372366
149	0x3e844b24	0.25838578
150	0xbf628d55	-0.88496906
151	0x3e427b26	0.1899229
152	0xbf34ac68	-0.7057557
153	0x3f8ef221	1.1167642
154	0x3da2fb9f	0.07958149
155	0xbf02337d	-0.50859815
156	0xbebfdab5	-0.37471548
157	0xbfbbb9dd	-1.4666096
158	0xbf920850	-1.1408787
159	0xbd992b98	-0.07479018
160	0x3e712251	0.23548247
161	0xbf9495f6	-1.1608264
162	0xbfdae508	-1.7101145
163	0xbd2f99b7	-0.042871203
164	0x3da1c79d	0.07899401
165	0xbf86dd4e	-1.0536287
166	0x3d01944f	0.03163558
167	0x3eed0a9c	0.46297157
168	0xbf48a2cb	-0.783734
169	0xbc0e145c	-0.008671846
170	0xbe26c4e8	-0.16286051
171	0xbf1ef2d5	-0.6208928
172	0x3ec7114b	0.3888038
173	0x3e84f240	0.25966072
174	0xbe189414	-0.14900237
175	0x3f6a426e	0.91507614
176	0xbf535d6d	-0.8256443
177	0xbf649b7c	-0.8929975
178	0xbe7ed637	-0.24886404
179	0xbf220d2f	-0.63301367
180	0x3f29a127	0.66261524
181	0xbf5f9fed	-0.873534
182	0xbe8f6866	-0.28009337
183	0xbe7e1cc5	-0.24815662
184	0x3f10ca56	0.5655874
185	0x3ec4b94f	0.3842263
186	0x3f460c1c	0.7736223
187	0xbe9c0f48	-0.3048041
188	0xbe541c37	-0.20713888
189	0x3f813531	1.0094358
190	0x3ff17c41	1.8866044
191	0x3bf9b20b	0.0076201013
192	0xbeb7372a	-0.35784274
193	0x3fa31e06	1.2743537
194	0x3f3571f0	0.7087698
195	0x3eab797d	0.33491126
196	0xbf8bd9c7	-1.0925835
197	0xbf2ab39d	-0.6668032
198	0xbeb68532	-0.35648495
199	0xbe184b7f	-0.1487255
200	0xbcc9d9b9	-0.024639951
201	0x3da3f5d7	0.080058746
202	0xbf3e6b6a	-0.7438265
203	0xbf50c171	-0.8154517
204	0x3fd4a5df	1.661312
205	0xbfdb0bed	-1.7113014
206	0x3f4eab7d	0.8073042
207	0xbfad9d5b	-1.3563646
208	0x3ef3b787	0.47600958
209	0x3f900446	1.1251304
210	0xbf6bf21d	-0.9216631
211	0x3ed072bc	0.40712535
212	0xbfb0b505	-1.3805243
213	0xbe6b3c93	-0.22972326
214	0xbd889d82	-0.06670667
215	0x3f7cc376	0.9873575
216	0xbf1dcd41	-0.6164132
217	0xc00d3ad0	-2.2067146
218	0x3f407134	0.75172734
219	0x3f6ab86a	0.91687644
220	0xbf9933fc	-1.1968989
221	0x3fb8ccdf	1.4437522
222	0xbf1f5adb	-0.6224801
223	0x3fdb2405	1.7120367
224	0xbe630d74	-0.221731
225	0xbf18db52	-0.59709656
226	0x3e94f2df	0.29091546
227	0x3f279048	0.6545453
228	0x3f18903a	0.5959507
229	0xbfad3ee7	-1.3534821
230	0x3f0c32ce	0.5476502
231	0xbebede1e	-0.37278837
232	0xbf84a452	-1.0362647
233	0xbf21282a	-0.6295191
234	0xbdd82220	-0.10553384
235	0xbfd0272e	-1.6261957
236	0x3f2962b9	0.66166264
237	0x3f91b132	1.1382201
238	0xc014e5c0	-2.3265228
239	0xbf91ce66	-1.1391113
240	0x3f8845fd	1.0646359
241	0xbf0c28db	-0.5474984
242	0xbf6e82c9	-0.9316831
243	0x3fc94e57	1.5727032
244	0xbf11271d	-0.5670031
245	0x3e04b0ab	0.12958018
246	0xbf109a50	-0.5648546
247	0x3f6e6239	0.93118626
248	0x3f82cbb1	1.0218412
249	0xbeb6de75	-0.35716596
250	0x3d99837c	0.07495782
251	0xbf0a6313	-0.54057425
252	0xbf06c74d	-0.5264786
253	0xbe4b6c1f	-0.19865464
254	0xbf7018d9	-0.93787915
255	0x3fe08e0b	1.7543348

encoder.bias_ih_l0_reverse f4 [200]
0	0x3f0b9fac	0.54540515
1	0x3dd215dc	0.102580756
2	0x3e9ff1d7	0.31239197
3	0xbf4019b2	-0.7503921
4	0x3f6b27bd	0.9185751
5	0x3d9b5a5e	0.075855955
6	0xbe937b11	-0.2880483
7	0xbf8c11d7	-1.0942944
8	0x3ee0f4bb	0.43936715
9	0xbf49fa7f	-0.7889785
10	0xbf759b78	-0.9594035
11	0xbf16f666	-0.58969724
12	0x3dd7f6d9	0.10545129
13	0xbf64f154	-0.8943074
14	0x3e84ce99	0.25938872
15	0xbf980065	-1.187512
16	0xbf74d603	-0.95639056
17	0xbf19321b	-0.5984208
18	0x3ef7872c	0.48345315
19	0xbf421006	-0.758057
20	0xbfa326cd	-1.2746216
21	0xbdfe06d3	-0.12403645
22	0x3faa66c3	1.331261
23	0xbf817761	-1.0114557
24	0xbf85f988	-1.0466776
25	0xbe938e27	-0.2881939
26	0xbfac016e	-1.3437936
27	0x3e146ffd	0.14495845
28	0x3e889cd2	0.26682144
29	0xbf109f96	-0.5649351
30	0xbf3e03e3	-0.7422468
31	0x3ce67e70	0.028136462
32	0xbfc4a69d	-1.5363346
33	0x3e3765b1	0.17909886
34	0xbe471de4	-0.19444996
35	0xbf30e03c	-0.69092155
36	0x3e82181f	0.25409028
37	0xbeec858c	-0.46195638
38	0x3f253e07	0.6454777
39	0x3fb0ecac	1.3822227
40	0xbee1485b	-0.44000515
41	0xbf4f52e9	-0.80985886
42	0xbf4fd16d	-0.81178933
43	0xbeb92f3c	-0.3616885
44	0x3f5b4713	0.85655326
45	0xbfacb64c	-1.3493133
46	0xbf9ced76	-1.2259967
47	0x3e85d83c	0.26141536
48	0x39121e90	0.0001393503
49	0xbe20a541	-0.1568804
50	0xbefd4ad4	-0.49471152
51	0x3ef00b92	0.46883827
52	0xbf232f48	-0.6374402
53	0x3f16bc03	0.58880633
54	0xbe14e55e	-0.14540622
55	0x3f361306	0.7112278
56	0xbf9b29c2	-1.2122118
57	0xbc102db6	-0.008799961
58	0x3f8138ca	1.0095456
59	0x3f85013b	1.0391
60	0x3eaac073	0.33349952
61	0xbae4693f	-0.0017426385
62	0xbe454fe5	-0.19268759
63	0x3f5065d2	0.81405365
64	0xbdb67f80	-0.089110374
65	0xbead3d5b	-0.33835873
66	0xbc56a650	-0.013101175
67	0xbf08f0d7	-0.5349249
68	0xbec92518	-0.39286113
69	0x3f1e50af	0.61841863
70	0x3e2e344e	0.1701214
71	0xbed6b046	-0.4193136
72	0xbf7d33f7	-0.9890742
73	0x3ef1fce7	0.47263262
74	0x3e26652d	0.16249533
75	0xbf1eabd3	-0.6198093
76	0x3fbe3e51	1.4862767
77	0x3e0c9fb4	0.13732797
78	0xbebf2827	-0.3733532
79	0xbf30af4b	-0.69017476
80	0x3fd14c0e	1.6351335
81	0xc029e3b8	-2.6545238
82	0xbf3fe359	-0.7495628
83	0x3f4b0a25	0.79312354
84	0x3e62dd97	0.22154842
85	0xbf943cc2	-1.1581042
86	0xbf0e0b54	-0.55486035
87	0x3ed5718b	0.4168819
88	0xbf6b96a8	-0.9202676
89	0x3eb665bb	0.3562449
90	0xbf80df5a	-1.0068161
91	0x3f309b40	0.6898689
92	0x3e5153f3	0.2044218
93	0xbf129ba2	-0.57268727
94	0xbfc4afb4	-1.536612
95	0x3f86be02	1.0526736
96	0x3f3ebdfb	0.7450864
97	0x3fb51bca	1.4149106
98	0xbfb1a777	-1.3879231
99	0x3fc975c4	1.5739064
100	0x3e9e8e85	0.3096811
101	0xbb13ee22	-0.0022572358
102	0xbcb0030a	-0.021485824
103	0x3f0baac8	0.54557467
104	0x3f018211	0.5058909
105	0xbe0a26df	-0.1349139
106	0xbdff2194	-0.124575764
107	0xbeea2583	-0.45731744
108	0x3bdbc41a	0.0067067267
109	0x3f130a33	0.5743744
110	0xbf4b2201	-0.7934876
111	0x3f66fb30	0.9022703
112	0xbe9c2843	-0.30499467
113	0x3e2dd45a	0.16975537
114	0x3f4146d3	0.75498694
115	0x3e596106	0.21228418
116	0xbf874362	-1.0567439
117	0x3ee95744	0.4557439
118	0xbe19e90c	-0.15030307
119	0x3e1fafa5	0.15594347
120	0xbea7cde9	-0.32774284
121	0xbf9ebb7d	-1.2400967
122	0x3f8e764e	1.1129854
123	0xbf741d19	-0.953569
124	0x3e4f75f7	0.20259844
125	0xbe6f4583	-0.2336636
126	0xbf37aedd	-0.71751195
127	0xbeae1e22	-0.34007365
128	0x3e95116a	0.29114848
129	0x3c12d44c	0.008961748
130	0x3f19c6ec	0.60069156
131	0x3fa729fb	1.3059686
132	0xbd32c75a	-0.043647148
133	0xbf1562de	-0.58353984
134	0xbf3631a9	-0.71169525
135	0x3fc00378	1.5001059
136	0xbe796199	-0.24353637
137	0x3f8d7a3b	1.1052927
138	0xbf196d67	-0.5993256
139	0xbf57b995	-0.8426755
140	0x3fa54a76	1.2913349
141	0xbdd5d945	-0.104418315
142	0x3dc65cb7	0.09685653
143	0xbf6ebd6c	-0.93257785
144	0x3f8e8134	1.113318
145	0xbea42852	-0.32062012
146	0xbf6613b9	-0.89873844
147	0xbecbde21	-0.39817908
148	0x3f4e1dac	0.80514026
149	0xbdb09173	-0.08621492
150	0xbfa4e40a	-1.2882092
151	0x3e5788b2	0.21048239
152	0xbedaba1a	-0.4272011
153	0xbe3533d2	-0.17695549
154	0xbf19f5cf	-0.601407
155	0x3d8cd653	0.068768166
156	0x3f6eeffd	0.93334943
157	0x3f46bbfe	0.77630603
158	0xbf89773c	-1.0739512
159	0xbe8eb282	-0.27870566
160	0xbf9506a6	-1.1642654
161	0xbf5732fb	-0.84062165
162	0x3f2ea820	0.6822529
163	0xbe116a6b	-0.14200751
164	0xbf1f58fa	-0.6224514
165	0xc00c835e	-2.195518
166	0x3e1d5eb0	0.15368152
167	0xbd9a8cdf	-0.075464
168	0x3ecf9d64	0.40549767
169	0x3e650918	0.2236675
170	0xbf034c43	-0.5128824
171	0xbfa402ce	-1.2813356
172	0x3ec27d76	0.37986344
173	0x3e0edb55	0.13950856
174	0xbe499a4f	-0.1968777
175	0x3e3df0fe	0.18548962
176	0x3ea45f6a	0.32104045
177	0x3fc9b2df	1.5757712
178	0x3d1f440f	0.038883265
179	0xbe9469ba	-0.28986913
180	0x3fd7a748	1.6847925
181	0x3e1b5361	0.15168525
182	0xbf51623e	-0.8179053
183	0x3daac4a9	0.08338291
184	0x3c96d813	0.01841358
185	0xbfc58e3d	-1.5434033
186	0xbebd494e	-0.3696999
187	0xbe442334	-0.19154054
188	0xbf220d41	-0.63301474
189	0xbf748ca0	-0.95527077
190	0xbf81f168	-1.0151796
191	0xbf0bf67d	-0.54672986
192	0xbe8d0095	-0.27539507
193	0xbfc4b6fa	-1.536834
194	0xbf4b8acc	-0.7950866
195	0xbf44cd9e	-0.76876247
196	0x3e314dfc	0.17314905
197	0x3fa9fbeb	1.3280004
198	0xbf3563eb	-0.7085559
199	0x3e20ec5a	0.15715161
